pi_420.pt (torch, 6398 bytes, 4 tensors)

fc1.weight f4 [128, 5]
00000000: aac0 c7be fd0b 97bc 960a 59be 6662 ebbd
00000010: 2ae1 b4be bee3 5b3d 6f86 983e ae1e 753e
00000020: 7f6a 5fbe f597 e6bd 461f 043e 9c18 90be
00000030: 7125 79be 7952 4a3e 3a0a b4be cac9 693e
00000040: 15a9 9c3e 2ebc debe b54d cdbe adfb 823d
00000050: a3fa af3c 7983 f9bd 92ea 28bf 4d7f 863e
00000060: 36e8 b33e e752 cebd 61c9 9bbe 72bd 833e
00000070: b094 05bf b139 66be 6c53 ca3b 29fa b9be
00000080: 30ad 9abe 7067 0bbe b9bd 1ebe 3696 4dbe
00000090: 3916 ccbd 117a ce3d b682 b6be 0583 793b
000000a0: c6d6 533e a5fc b13e 9a32 1ebf 0425 9abe
000000b0: 01ef ad3e 6358 d93d c537 cbbe 879f 013d
000000c0: b4eb 9d3e 3c38 3d3e ab16 18be c6bd b0be
000000d0: a553 df3d 7bbf 60be 3af0 febc ed18 9dbe
000000e0: a1bc 93be fed8 53be cd96 c6be 0ca2 b1bd
000000f0: 65db 9abe 8c55 e33e ad35 a2be e38c b1bd
00000100: 1666 9b3e 38d5 6abe f240 8fbc a497 aa3d
00000110: 5f8f b33e d2dd 953e 0c81 72bd 504f bbbe
00000120: 9775 163e d112 b33e 353f 373e e01f debd
00000130: a294 173e ef4f a9be f266 793e b786 343e
00000140: 0ebb f83c 8c16 6fbc 194c 753e 3cbf e2bd
00000150: c970 f6bd 530a 8e3e 844a e2bd 8e87 0abf
00000160: 3119 8bbd 669e b3be 4774 cc3e b0b8 44be
00000170: 559e 34be ff62 5b3c c990 79bc 0db7 a1be
00000180: 59ef b1bd 4ac8 debe f09f f93d 6d47 0bbf
00000190: 5654 ce3e 4a23 4fbe 884a 913d 8bf9 d4bd
000001a0: acce e63d c693 273e 9893 19be c538 cc3e
000001b0: 7a1e 5c3c 2de5 1d3d b1aa 5a3e 28a4 303e
000001c0: 78f6 f8be 8e90 903c b949 10be 705f babe
000001d0: 83c9 bdbe 0a08 c23e 2ed7 70be 8929 d43d
000001e0: dfed 09be 2b3f 87bc c8a8 993d 954f 99be
000001f0: a793 1dbe f016 95be c08a bd3e d630 0cbf
00000200: a66a e33e cb45 a63d 93c2 7d3e 4cc7 d23b
00000210: 0439 813d c04b c3be 4d46 08be 0fdc 93be
00000220: 0aa0 eebe 0ced a0bd 7d0f 573e 2712 ae3d
00000230: 39cd 8bbc 6450 433e f5e2 21bf 017a 273e
00000240: c0b0 813e 6b85 fb3e 787d 06be 4bc4 11bf
00000250: a6f4 e83d 3a54 56bd 6a69 2cbe dc7c 1b3e
00000260: f216 06bf ca46 093e 51d9 7b3e 0e0e e8bd
00000270: 641a fbbe e5bb 603c 2e88 bf3e 9438 563b
00000280: b7d3 64be 3ae4 a9bc 3975 e23d 400d a23e
00000290: 2bf7 323e e74b e2bb 694f 6c3c 0961 95be
000002a0: 0830 523d c682 9f3e 74fb 483e 4e00 8c3d
000002b0: 5a4a e0be b8bf 9a3e 9edf 45be 5fc7 fe3d
000002c0: 5358 6a3e f52b 9dbe 25bc 313e 03e4 783d
000002d0: 038f 3dbc fef1 013e bf6c 15be 396a 86be
000002e0: 62d7 173e a330 043f 9b3e c43d c27b 343d
000002f0: 7c51 7b3e df51 823d 769c 223d e011 793e
00000300: e0d3 973c e2a0 4c3d 1e5a 28bd e048 783e
00000310: 3a8f 87be cacf c2be f318 dabe c383 363e
00000320: 04fe 563e 3e7c 72be 6b21 b6be 17ad 913e
00000330: 78ac aa3e 9f8c 4fbe ab26 e3be f16f d4be
00000340: 4034 ebbd a9bf 3fbe b215 c13d 970d 473e
00000350: 6fca 84be 0731 b1be 84d9 eb3d d8b2 6cbe
00000360: 089a 74be 2eb7 f7be b6a8 a23c 5bfe 923e
00000370: 35e1 b2be 228b 2b3e b6ac 2c3d fd50 c9be
00000380: f294 863e ec33 e63e 229c a63d 6d01 10bf
00000390: 3b58 01bf bdfb aa3e 8ffc fa3d aa45 ebbe
000003a0: b7eb a8be 5b1a bd3e 35d4 503e 8b36 cabe
000003b0: 3121 aa3e 7b52 c8be d6a0 1d3d 1839 983e
000003c0: 1362 fb3d b110 62bd f58d e2be c0da 3dbe
000003d0: 325c 903d 121e 9a3e f790 7c3d 6597 44be
000003e0: d3b3 643e 929a 0fbe 1263 883e 78ac ca3c
000003f0: 2a2a c33d 0fa8 293f cba2 ce3e 8746 b13e
-0.3901418 -0.018438334 -0.21195444 -0.114933774 -0.35328037 0.05368399 0.29790065 0.23937485
-0.21817969 -0.11259452 0.12902555 -0.28143775 -0.24330689 0.19758023 -0.35164052 0.22830883
0.3059775 -0.43502945 -0.40098348 0.063956596 0.021481818 -0.121832795 -0.65982926 0.26268998
0.351381 -0.10074406 -0.30427077 0.25730473 -0.52180004 -0.22482945 0.0061744954 -0.3632367
-0.30210257 -0.13613677 -0.15502061 -0.20076832 -0.09965176 0.10081876 -0.356466 0.0038072478
0.20687398 0.34763065 -0.6179596 -0.30106366 0.33971408 0.106125616 -0.39690986 0.031646278
0.3084389 0.18478483 -0.14852397 -0.34519786 0.10904626 -0.21948044 -0.031120408 -0.3068308
-0.2885485 -0.20688245 -0.38786927 -0.08673486 -0.3024551 0.44401205 -0.31681576 -0.0866945
0.30351323 -0.22932899 -0.017487023 0.083297044 0.3507032 0.29270798 -0.0592051 -0.36583948
0.14693294 0.34975293 0.17895205 -0.108459234 0.14802793 -0.33068797 0.24355677 0.17629515
0.030362632 -0.014592778 0.2395481 -0.11071631 -0.12033231 0.27742252 -0.11049369 -0.5411309
-0.06791914 -0.35081786 0.39932463 -0.19211078 -0.17638524 0.013390302 -0.015232273 -0.3158497
-0.0868823 -0.43512183 0.12188709 -0.5440586 0.40298718 -0.20228305 0.07094294 -0.10399159
0.11269888 0.16364965 -0.14997709 0.39887062 0.013435001 0.038548637 0.21354176 0.1725012
-0.4862554 0.017647054 -0.14090623 -0.36400938 -0.37067804 0.37896758 -0.23519585 0.10359485
-0.13469647 -0.016509613 0.075028956 -0.2994353 -0.15388356 -0.29119062 0.3701992 -0.5476202
0.44417304 0.08118781 0.24781255 0.0064324494 0.06309703 -0.3814373 -0.13308068 -0.2887883
-0.46606475 -0.07857713 0.21002002 0.08499556 -0.017065631 0.19073635 -0.63236934 0.16355135
0.25330162 0.49125227 -0.131338 -0.56940144 0.11374788 -0.05232642 -0.16837087 0.15184349
-0.5237876 0.1340591 0.24594618 -0.11330806 -0.49043572 0.013716673 0.37408584 0.0032687532
-0.22346388 -0.02073871 0.11057515 0.31650734 0.174771 -0.006906021 0.01442323 -0.29175594
0.051315337 0.3115446 0.19627172 0.068359956 -0.43806726 0.30224395 -0.19323584 0.12440371
0.22885256 -0.306976 0.17356928 0.060764324 -0.011569741 0.12689969 -0.14592265 -0.26252916
0.14828256 0.51636714 0.095822535 0.044063337 0.24542803 0.06363272 0.039699994 0.24323225
0.018533647 0.049958117 -0.041101567 0.2424655 -0.2647646 -0.38049155 -0.4259716 0.178237
0.20995337 -0.23680207 -0.3557237 0.2845237 0.33334708 -0.20268486 -0.4436544 -0.41491655
-0.11484575 -0.18725456 0.09427966 0.19438778 -0.25935695 -0.34607717 0.11516097 -0.23115098
-0.23886883 -0.48381943 0.019855838 0.28709683 -0.34937444 0.16752294 0.042156897 -0.39319602
0.2628551 0.44961488 0.08135249 -0.56252176 -0.50525254 0.33395186 0.12255203 -0.45951587
-0.32992336 0.3693417 0.2039345 -0.39494738 0.33228448 -0.39125428 0.038483463 0.2973106
0.122745655 -0.0551917 -0.4424893 -0.18540478 0.07048835 0.30101067 0.061661687 -0.19198377
0.22334222 -0.14023808 0.26638085 0.024740443 0.095295265 0.6627206 0.40358576 0.3462412

fc1.bias f4 [128]
00000000: 64d8 84be 8bbc b73e ae2a 643e 5867 73be
00000010: 1bfe b0bd c6cb 6e3e 44ac 733e aa7b 853e
00000020: 6fe2 c13e 60f0 9cbe 29f1 293d 3b38 c33d
00000030: 055c b6be 490e cdbd a9d4 a03c eb09 dcbe
00000040: a75f 0dbe 1538 7d3e 5e37 433e e9d4 653e
00000050: 3dc1 cabe 476c 87be 09b4 a33e 8353 b43e
00000060: 6620 fe3d 3678 5abe c600 97be 87b1 fa3d
00000070: 77f3 493e 069c 85bc c076 b6be 604f 8e3e
00000080: 399d cdbd 12e0 98be 059f 4d3e ad72 99bd
00000090: 2d00 473e b25a 1abe 02cc 623e 4ebd 28bc
000000a0: a5ea c73e 4fdd 34be b0eb 0cbe a04e 4c3e
000000b0: 9ff4 c63d ae02 a1be a3f8 eebe 86b3 a7bd
000000c0: ff99 27be 361c 833d 1405 61be b31c e4bd
000000d0: b429 8b3e 33eb 713e 3e15 2a3e 0123 dfbe
000000e0: ead1 d2bc 29bc 473e ab3e 3bbd 7aa1 c1be
000000f0: 5882 03be 279b 3ebe bcd2 903e c0a2 47be
00000100: e8a4 543d 2577 6f3c 4559 2c3e 7107 313d
00000110: 1931 b13d abf8 dbbe 06cb 8f3e f267 9fbe
00000120: 87fe a3bc 0cbe b4be 83db 55be a0df 0f3e
00000130: 478d bc3d 15b5 b3be 9f35 a43e c073 53be
00000140: 4708 abbd 384a 26be d154 df3d f96c 71be
00000150: 4e84 233e 08d8 973d 5fe2 9bbe 8171 da3c
00000160: 9bbf d3be ebdb d9be 0415 bc3e 5240 b6be
00000170: 595c e4be 0fa1 e8bd b7c4 c9be a86c ca3a
00000180: fe6a 84be df5a c03c 657f 7b3d d210 8dbe
00000190: 885a 81be 1df5 cebe 566f 20bc 1249 abbc
000001a0: a5ea 36be bee7 463d 2833 d93d a446 e3be
000001b0: 6671 c4be 45bd 37be 8f32 b0be b593 cabe
000001c0: 7965 6bbe d8e1 74be 8e11 65be 8777 aa3e
000001d0: 1cc4 143e 6389 63be e4bb e1be b543 be3e
000001e0: 1f09 5b3e cb66 08bc 2746 b8be 9f4e 4a3e
000001f0: 2b14 af3c 431f 343e 6f90 cabe 9908 80be
-0.25946343 0.35886034 0.22281906 -0.23769891 -0.08642217 0.23319921 0.23796183 0.2607091
0.37868068 -0.30652142 0.041489754 0.095322095 -0.3561708 -0.1001249 0.019632654 -0.42976317
-0.1380602 0.24728425 0.1906409 0.224445 -0.39600554 -0.26449797 0.31973293 0.35219964
0.12408523 -0.2133492 -0.29492778 0.12240892 0.1972178 -0.01630975 -0.35637474 0.27794933
-0.100397535 -0.29858452 0.20080192 -0.07492576 0.19433661 -0.1507366 0.22148135 -0.01029904
0.39046207 -0.17662548 -0.13761783 0.19951868 0.097146265 -0.31447357 -0.4667407 -0.08188538
-0.16367339 0.06401865 -0.21974593 -0.111382864 0.27180254 0.23624878 0.16609666 -0.43581393
-0.02573486 0.19505371 -0.04571406 -0.3781851 -0.12842691 -0.18613873 0.28285778 -0.19495678
0.05191508 0.014615809 0.16830929 0.043219987 0.08651943 -0.42963156 0.28084582 -0.3113399
-0.020018829 -0.35301244 -0.20884518 0.1405015 0.09206634 -0.35099092 0.3207216 -0.20649624
-0.08351188 -0.1623925 0.10904849 -0.23576726 0.15968439 0.074142516 -0.30446145 0.026665451
-0.4135712 -0.42550597 0.36734784 -0.35595948 -0.44601706 -0.113588445 -0.39407894 0.0015443759
-0.2586288 0.02348083 0.06140079 -0.27551895 -0.25264382 -0.40421382 -0.00979217 -0.020908866
-0.17862947 0.04856085 0.106054604 -0.44389832 -0.38367766 -0.17943294 -0.34413573 -0.39565817
-0.22987927 -0.23914278 -0.22369978 0.33294317 0.14527935 -0.22220378 -0.44088662 0.3716103
0.21390198 -0.008325289 -0.35991022 0.19756554 0.021371922 0.1759005 -0.3956332 -0.2500656

fc_mu.weight f4 [1, 128]
00000000: eee6 213d f0b4 9cbd aaf6 babd 567e 853e
00000010: 57e5 16be 447f b53d 6832 e7bc 5203 59bc
00000020: b9df ddbd 0291 8cbd 56ca 603d 1449 a0bd
00000030: 0ea5 80bd 84ca 093a 2afc 17bc 1e1d 48bc
00000040: b275 403d 2c7d cabd 1504 d9bd bf4b aabc
00000050: 43fe 673d ff43 c13c 6bce 8dbe 13f8 993d
00000060: c885 72bc 89ea 18be 6b99 59bc ba35 53ba
00000070: a67d a7bd e058 7fbe 7031 ca3d ef43 19bd
00000080: 47c9 20bc 7a5e 1a3c 74d9 a4bc b2df 30bd
00000090: ba28 c1bc 9874 13be c584 64bd 81cb 2a3e
000000a0: 0e91 ddbd 6b87 e63c 95b8 5d3d 907a d6bc
000000b0: 16e7 a03d f581 8c3e 8bf4 ee3d 6b8e 9a3b
000000c0: df73 a43d f0cc 1fbe a759 78be 1d41 51bd
000000d0: a978 45be 992c d7bb 6846 0dbc 1f7d 553c
000000e0: 2929 993d e57e d93b 3e57 00be 9369 0a3d
000000f0: 6405 cc3a 2d24 e33c 2598 d5bc 255e aebd
00000100: 331b f1bb c0a6 60bd bf5d d5bd ac1c e4bc
00000110: e4a1 04bc e777 993d c9b1 95bd e6d5 91be
00000120: 52d4 0cbd 2289 87bc a13d b33d ad05 94bd
00000130: a34a f6bc 81cb 573d 43e1 63bd 2d8a dabb
00000140: 38cc f9bc 054d 1c3d 6b1a 35be 131a 59bd
00000150: 90a8 0c3c f126 83be 99e1 513e 9e23 e2bd
00000160: c1a5 7c3d 4120 15bd 0dd2 3cbd e982 42bd
00000170: 93e2 a6bd 1ad9 94bc eb07 18bd 2375 1f3d
00000180: b8d0 a93d 0bbd e1bc ccf6 42bc e118 57bb
00000190: 61d4 8c3d 5ce3 adbd 9f3b 333e 66a3 a4bd
000001a0: fa1a e8bb 0b07 693e 7e53 e4bc 3011 e4bb
000001b0: b718 cc3c ea2a e73b a715 803d 2eb7 933d
000001c0: 7a73 06be 44ac 0c3c c28b ed3c 7440 30be
000001d0: df6e 5bbb 4cb9 4e3d 8e6f 83bd 9b84 01be
000001e0: 7fb8 48bd 282c fb3c cd4e 43bd 2280 4cbd
000001f0: d431 163b 3137 2cbc e264 5fbd 4eb2 b1bd
0.039526872 -0.076516986 -0.09129079 0.2607295 -0.14735924 0.088621646 -0.028222278 -0.0132454205
-0.10833687 -0.068635955 0.054880463 -0.078264385 -0.06281482 0.00052563124 -0.009276429 -0.012213973
0.046987243 -0.09887156 -0.10596482 -0.020788072 0.056638967 0.023591993 -0.27696547 0.075180195
-0.014802404 -0.14933218 -0.013281207 -0.0008057017 -0.081782624 -0.24936247 0.09872711 -0.037418302
-0.009813613 0.009421939 -0.020123221 -0.043182082 -0.02357899 -0.14399946 -0.05579068 0.16679193
-0.108186826 0.028140744 0.05413111 -0.02618149 0.07856576 0.274429 0.116677366 0.0047166846
0.08029913 -0.15605521 -0.2425295 -0.051087487 -0.1928431 -0.0065665958 -0.008622743 0.0130303195
0.07478554 0.0066374415 -0.1253328 0.03379209 0.0015565571 0.02772721 -0.026073525 -0.085140504
-0.0073579787 -0.054846525 -0.10418271 -0.027845703 -0.008095238 0.07493573 -0.073093005 -0.28483504
-0.034382172 -0.016544882 0.08751989 -0.07227645 -0.030064886 0.05268431 -0.05563475 -0.006669304
-0.030492887 0.03815939 -0.17685859 -0.053003382 0.00858511 -0.25615647 0.20496215 -0.1104195
0.061681513 -0.036407713 -0.046098758 -0.047488127 -0.08148684 -0.018169928 -0.037116926 0.03893007
0.08291763 -0.027555963 -0.011899661 -0.0032821225 0.068764456 -0.08490631 0.17503212 -0.08038978
-0.007083294 0.22756593 -0.027871843 -0.0069600567 0.024914129 0.0070546763 0.0625413 0.07212673
-0.13129988 0.008585993 0.028997306 -0.17212087 -0.0033482832 0.05046968 -0.06417762 -0.12648241
-0.049004074 0.030660704 -0.047682572 -0.049926884 0.0022917883 -0.0105112055 -0.05453957 -0.08676587

fc_std.weight f4 [1, 128]
00000000: a44b ad3d 9445 823d a182 81bd c14e 1b3e
00000010: 9ae7 12be 66c7 833d 3ccd a4bd 8044 ccbd
00000020: b426 d3bc a06f 54bd a963 13bc 8bbd a43d
00000030: 8587 74bd 6ea2 8fbd 3187 09be 9bde 88bb
00000040: abe3 82bd 66ad 5e3c 9fce a73d 97e1 f6bd
00000050: b1be 9d3d 8707 893d 88c1 993e dd55 a33d
00000060: e502 43be ef7e 4ebe f77b 82bd 490e b33b
00000070: bc99 a0bd a5eb fd3e 37bd c4bd f814 ebbd
00000080: c593 23bd cb9c 713d fbdd 05be 791a f2bd
00000090: f2c6 c7be d77d 573c 60ed 623d 992b 5f3e
000000a0: f9c3 8cbd ef7c 4fbd 9468 213d 888b ecbd
000000b0: 76d9 debd 69e6 253e 04e0 09bd 7f40 3ebd
000000c0: d135 1a3d f24f c13d 7cf5 9dbe b0de 9cbd
000000d0: a35c e83d c094 01be ed61 f9be 3b02 5b3c
000000e0: 8847 02be d992 15bd cbe0 4b3c 88a4 a1bd
000000f0: 13e5 8bbc 1a71 ab3c c14f 0d3e c5ef dabd
00000100: d819 72bd 0c6a c93b 7cf2 c23a 4884 c8bd
00000110: cfe1 803c 6d81 45bd 886d 8fbd 0fc2 a73e
00000120: 8f7b b13b 2d8c 2a3d 00e7 d33c 4861 823c
00000130: 961c d9bd fe7b 03be c12e 8abd 54d5 acbb
00000140: 8739 143d c7c7 87bb 2bf5 fd3d fc55 0ebd
00000150: 9032 103e 34f6 6f3e 6d3e a73d 4ca2 babd
00000160: 9a81 a43c e9c2 713d f066 953b cb67 34bb
00000170: 68b8 2b3d 6508 84bd e880 6dbd 61e8 ad3c
00000180: 28b0 0dbd 8e84 9abe 7d3a 12be 32ad 873d
00000190: 5812 99bd 8171 45bd f6db 3a3e dcdc 8abd
000001a0: 8516 2a3d 768a a63d 22f7 e83d 936f 82bd
000001b0: 3f0b 5f3d 0750 283d a90b b63c 2680 44bc
000001c0: aa4a 2cbd 947b c1bc 4e1c 89bd 71a1 333e
000001d0: f63e a1bd 47e9 aabd 2528 a23d 3553 09bd
000001e0: 8e19 44bc b11a 8cbc 1255 183d 30f6 89bd
000001f0: 4cba cdbd abd9 8b3d 044f 983b 1ade acbc
0.08461693 0.06360927 -0.063237436 0.15166761 -0.14346161 0.064345166 -0.08046958 -0.09974003
-0.025775291 -0.051864266 -0.008995929 0.08043965 -0.059699554 -0.07013403 -0.13430478 -0.0041769273
-0.063910805 0.013591146 0.08193707 -0.120547466 0.07702387 0.06690889 0.30030465 0.079753615
-0.19044073 -0.20165609 -0.06371301 0.0054643494 -0.078418225 0.49593845 -0.09606402 -0.11478609
-0.039935846 0.05898742 -0.1307296 -0.118214555 -0.3901897 0.013152561 0.05540216 0.21793975
-0.06873316 -0.050656255 0.039406374 -0.11550051 -0.10881321 0.16201176 -0.033660904 -0.046448227
0.03764898 0.094390765 -0.30851352 -0.07659662 0.11345794 -0.126544 -0.48707524 0.013367231
-0.127226 -0.036516998 0.012443732 -0.0789271 -0.017077005 0.020927954 0.13799955 -0.10690264
-0.059106678 0.006146675 0.0014873291 -0.09790856 0.015732674 -0.048219133 -0.07003313 0.32765242
0.0054163407 0.04163759 0.025866985 0.015915528 -0.106011555 -0.12840268 -0.06747199 -0.005274454
0.036187675 -0.0041436884 0.12400278 -0.03474997 0.14081788 0.23433763 0.08166204 -0.09112987
0.02008133 0.05902377 0.0045593902 -0.0027527686 0.04192391 -0.06446914 -0.057984263 0.021228971
-0.034591824 -0.30179256 -0.14280124 0.06624831 -0.07474202 -0.04820395 0.18247971 -0.06780407
0.041525383 0.08131878 0.11375262 -0.06368937 0.054454084 0.041091945 0.022222357 -0.011993444
-0.042063393 -0.023618497 -0.06694852 0.17542054 -0.07873337 -0.08345275 0.07917813 -0.033526618
-0.011968983 -0.017102571 0.037190504 -0.0673641 -0.10045299 0.06828626 0.0046480913 -0.021102
